models/fine_tuned/ICICIBANK.pth (torch, 215508 bytes, 9 tensors)

lstm.weight_ih_l0 f4 [256, 9]
000000 6d 7f 95 3d cf fa 31 bd 65 07 6b be 87 e5 a4 bd
       0.07299695 -0.04345208 -0.2295204 -0.08051591
000010 4d 77 8b be 29 14 00 bf e3 3a 14 bd 83 37 80 bd
       -0.27239457 -0.5003076 -0.03618897 -0.06260588
000020 b2 4e b4 be 02 0e 25 3e e3 76 20 3e e8 db ab 3d
       -0.3521629 0.16118625 0.15670352 0.08391553
000030 51 57 28 3e 15 c1 2d be 52 c8 7a be d8 6b c9 bd
       0.16439559 -0.16968186 -0.24490479 -0.09835023
000040 68 5d 8b bc 16 c0 d7 bc cc b3 30 bd c5 14 0e 3d
       -0.017012313 -0.02633671 -0.043140218 0.034687776
000050 f7 5b d5 bd 42 fb cb bd c2 d6 5f be c1 10 9f be
       -0.104179315 -0.09960033 -0.21859267 -0.3106747
000060 6b 14 0e be 68 5a 1e be be 39 43 be 13 3f 05 3e
       -0.13874976 -0.15464175 -0.19064996 0.13012342
000070 3d f9 81 bd ec 3e e2 bd 7f 13 29 3c 65 0b 4f bc
       -0.063463666 -0.11047158 0.01031959 -0.012636994
000080 a6 41 11 be 2f 66 e6 bc ed 6a 45 bc ab ea 7a 3e
       -0.14185199 -0.028124897 -0.012049419 0.24503581
000090 ff 25 9b 3d af c7 2c bc d5 c3 fb bd df 1a 3d 3e
       0.075756066 -0.010545655 -0.12293211 0.18467282
0000a0 7e 8d 24 be da 63 cd bd 8a 5d 28 3e cd 22 08 be
       -0.160696 -0.10028811 0.16441932 -0.13294525
0000b0 61 bd aa bd 9d ba 2c bc 25 e9 14 be 6f 19 f9 bd
       -0.083369024 -0.010542539 -0.14542063 -0.12163054
0000c0 5b 6c 9c 3c 64 79 1f be db 80 60 be f4 60 ef 3c
       0.019094637 -0.1557365 -0.21924154 0.029221036
0000d0 8a af 89 bc f5 43 92 3e 41 cd 19 be eb 9c 1b bd
       -0.016807336 0.28567472 -0.15019704 -0.037991446
0000e0 14 93 77 be f4 28 dc bd 7d 38 56 be 73 b8 dd be
       -0.241772 -0.10749999 -0.20919986 -0.43304786
0000f0 33 93 5e be 1e 58 82 bd 2f f7 90 be 63 96 3e 3d
       -0.2173584 -0.06364463 -0.28313586 0.04653014
000100 05 bb ea bd ce 1d 32 be fd bd 8b bd b4 d1 a2 bc
       -0.114614524 -0.17394182 -0.06823347 -0.019875385
000110 d3 b2 bf bd 88 5e a5 3d 1c 8d 39 be e9 67 1b bf
       -0.0936028 0.08074671 -0.18120235 -0.6070543
000120 d5 3a 5e 3e 36 51 5d bc d8 e0 51 bd e2 91 64 3e
       0.2170213 -0.013508132 -0.05123982 0.22321275
000130 e7 22 a5 be 1a 9c cd be a4 89 89 bd aa 92 1e 3e
       -0.3225319 -0.4015816 -0.06715706 0.15485635
000140 8e 65 b6 3e 8f a2 5b 3e fe e6 52 bd 81 4a de bd
       0.35624355 0.2144873 -0.051489823 -0.10854054
000150 62 0a 88 3d e7 b4 0d be 5c 27 98 be c1 bf 6e bc
       0.06642605 -0.1383854 -0.2971753 -0.014572085
000160 1c e5 53 bd ff af ad 3e 11 ef bd 3d 7c 59 8f bd
       -0.051732168 0.33923337 0.09274114 -0.0699949
000170 f5 d1 ab bb db 64 74 3d e0 b0 8d be 74 3a 87 be
       -0.0052435347 0.059666496 -0.27674007 -0.26411784
000180 87 50 c3 bd ce 28 22 3d 0b c6 33 bd 48 03 c0 bb
       -0.09536844 0.039589696 -0.04389004 -0.005859766
000190 8d 4c a2 3d de 89 13 be 0d 0a 7d bd 2f a6 46 be
       0.07924757 -0.14408061 -0.061777163 -0.19399332
0001a0 6b c1 7d be 8b 0c 86 bc b2 05 de ba 9d 50 20 be
       -0.24780814 -0.016363403 -0.0016938953 -0.15655752
0001b0 f2 ef 09 be 4f d5 1c bd bb b0 2c be 43 51 d4 3d
       -0.13470438 -0.038289364 -0.16864292 0.10367062
0001c0 76 5e 1f be 01 be 3f be be bd 06 be bc 8e 80 bd
       -0.15563378 -0.18724824 -0.13158318 -0.062772244
0001d0 d0 a0 96 3d 80 0b 4a 3e b8 76 9c bc 7c ea 9c bc
       0.07354891 0.1973095 -0.019099578 -0.01915478
0001e0 dc 6c 07 bd cf 7f 29 3d e1 77 3c be 61 c6 8a bd
       -0.0330628 0.041381653 -0.18405105 -0.06776119
0001f0 f6 0d d7 3c 0a 5d b6 3e c6 73 a0 be 11 55 5d be
       0.026251774 0.35617858 -0.31338328 -0.21614482
000200 1d dd 5d be 05 bb e6 be 2a 0a eb be 11 2d 02 bf
       -0.2166638 -0.4506456 -0.45906192 -0.50850016
000210 58 3f 7c bd 4d 99 90 be fe 59 60 be 0a f2 d7 3d
       -0.061583847 -0.2824196 -0.2190933 0.10544212
000220 b3 8b 2b 3d 1f ec 3a be db a1 aa 3b f0 97 89 be
       0.041881274 -0.18254136 0.005207283 -0.26873732
000230 12 71 da be 87 de 25 be 26 0c b3 3c 2c 00 7b be
       -0.4266439 -0.16198169 0.021856379 -0.24511784
000240 14 31 35 3d 83 7a 16 3d c6 ac 69 bd 27 a3 94 3d
       0.044236258 0.03673793 -0.057049535 0.07257681
000250 f2 ff 22 be 1f 63 08 be e7 f9 cf bc 55 62 b7 bd
       -0.15917948 -0.13319062 -0.025387717 -0.08954302
000260 4e b7 c2 bd 42 c3 e7 be 59 19 af be f1 6e a0 be
       -0.09507619 -0.45266157 -0.34199026 -0.31334642
000270 28 3e 8a be 87 2c d8 be 6c 27 dc be 3c a8 cc be
       -0.27000546 -0.42221472 -0.42998827 -0.39972103
000280 4e 07 0b be 36 fd c9 be 35 23 6a 3d 32 6d c2 bd
       -0.13577005 -0.39450997 0.057162482 -0.094934836
000290 1b 95 0c be 9f e4 22 bd 5d de a4 bd e4 50 1e be
       -0.13728754 -0.03976881 -0.08050225 -0.15460545
0002a0 bc 10 cf 3d 8f c2 1a be 4d 4b c3 be c0 5c 08 3e
       0.10110614 -0.1511328 -0.38143387 0.13316631
0002b0 c2 90 df 3d a6 9c f3 bc d0 ce 68 3e c2 5f 14 bd
       0.10916282 -0.029737782 0.22735143 -0.036224134
0002c0 66 13 92 3d 42 cb 21 3e 1a d4 35 3e da 3e a5 3e
       0.07132606 0.15800193 0.17756692 0.32274514
0002d0 31 b7 f0 3d 8f 2d 1a bd 81 1d 8f bd 43 9c bf 3d
       0.11753691 -0.037641104 -0.06988049 0.093559764
0002e0 c1 6b 85 be 9c 99 a9 be 16 75 e6 bd 32 b6 91 bd
       -0.26058772 -0.33125007 -0.11252801 -0.07114829
0002f0 28 7f 20 be 4e 33 10 3e 9c 65 32 3d a6 b6 f8 bd
       -0.15673506 0.14082071 0.043553934 -0.121442124
000300 43 0c 38 3e a5 45 02 3e d7 a9 f5 bc 6e b0 be bd
       0.17973427 0.1272188 -0.029988213 -0.09310995
000310 37 e1 24 3e 58 11 fe 3d 51 72 45 bb 75 94 11 be
       0.16101538 0.12405652 -0.0030127952 -0.14216788
000320 fd f6 d8 bd 97 c0 a8 3d de 07 0b be f1 48 22 be
       -0.10593984 0.082398586 -0.1357722 -0.15848137
000330 e2 dd 9f be f2 99 44 be a6 ff f9 3c e6 ab 1c 3e
       -0.3122397 -0.1919935 0.03051741 0.15299949
000340 50 73 06 be 2d da 0a be 4f 55 72 3c c1 db 1a be
       -0.13129926 -0.1355979 0.014790847 -0.15122892
000350 2b 67 81 be a0 25 c0 ba 18 83 dd bd 4e 6f 64 3e
       -0.25274023 -0.0014659651 -0.1081602 0.22308084
000360 1d 85 11 bc 83 80 3a 3d fd e7 9b bc e2 55 0f bc
       -0.008881834 0.045532715 -0.01903152 -0.008748503
000370 21 a7 83 be 1b c8 58 be 8c c5 40 bd e0 fc 5a 3c
       -0.25713447 -0.21170084 -0.047063395 0.013365954
000380 af b0 d7 3d 6d ee de 3d ee f4 5e bd 6d ed 8b bc
       0.105317466 0.1088532 -0.054432802 -0.017080987
000390 57 e3 08 3d ae 37 75 be 8b cc 9f be 34 d6 e7 bd
       0.033419933 -0.23947021 -0.3121074 -0.11320153
0003a0 8e 36 2f bd 81 c3 88 bd aa a2 c3 3d b1 06 ed ba
       -0.042776637 -0.066779144 0.0955251 -0.0018083659
0003b0 3f 13 c0 bd f1 a4 04 3e 07 24 b1 bb c4 57 81 be
       -0.09378671 0.12953545 -0.005405906 -0.25262272
0003c0 03 f8 7a bc 30 bf a3 3d d0 93 c9 3e 13 c4 13 3e
       -0.01531792 0.079954505 0.39370584 0.14430265
0003d0 57 e6 3d 3d da 99 5d 3d 07 2f 18 be ee 5c 7f be
       0.046362247 0.054101802 -0.1486169 -0.24937794
0003e0 b4 1d e1 be 66 6c dc bb 00 47 a7 3d c9 ae 47 be
       -0.43967974 -0.0067267893 0.08167839 -0.19500269
0003f0 f2 23 81 be 30 08 9f be ea ce c2 be 83 db f6 bd
       -0.25222737 -0.31060934 -0.38048488 -0.12053587

lstm.weight_hh_l0 f4 [256, 64]
000000 e8 e0 0c be 25 25 e0 3d a3 2a dc bd 55 bd c8 3a
       -0.1375767 0.10944585 -0.1075032 0.0015315214
000010 9b f2 7c 3e 92 a9 3b 3d 0e 2a 57 bd ff 5f 9c bd
       0.24701922 0.04581601 -0.05253034 -0.07635497
000020 f4 8b 50 be f1 23 4b be 8a 2e 01 be 62 d6 2a 3e
       -0.20365888 -0.1983793 -0.1261541 0.16683343
000030 1b 35 a9 3d a2 a9 a7 bd 0e 56 47 be 5d 1c 90 3e
       0.08262082 -0.08186652 -0.19466421 0.2814664
000040 25 7b 2d bd 9b 0f e3 bd 93 b2 0c 3e 8c 5f 67 3c
       -0.042353768 -0.11086961 0.13739996 0.014121901
000050 09 0e 0e be 89 5d 2f 3d a3 9e 0e 3e 48 82 68 bd
       -0.13872541 0.04281381 0.13927703 -0.05676487
000060 21 31 a1 3c b8 6d 8b be fe 51 32 be 01 dd 2e be
       0.019676747 -0.27232146 -0.1741409 -0.17076494
000070 8f c1 8e 3d 38 84 b6 3d 73 7c f2 bd eb 28 2d 3e
       0.06970512 0.089119375 -0.11840143 0.1691014
000080 ad 5c 72 3e cf f5 14 3e 44 6c 06 bd 48 82 10 bd
       0.23668166 0.14546894 -0.032818094 -0.035280496
000090 0b 46 3f 3e b8 c9 53 3e c8 b7 bb 3d 2f 7e 92 be
       0.18679063 0.20682418 0.09165913 -0.28611895
0000a0 23 37 22 be cf c6 93 be 65 7b d0 bd 5c a4 7f bc
       -0.15841345 -0.28862616 -0.10179786 -0.015603151
0000b0 9e 4a a7 bc 38 3e 70 be 2d 3c a0 bd d2 e4 eb 3c
       -0.020421322 -0.23461235 -0.078239776 0.028795633
0000c0 32 7e f9 bd 3c 08 8e bd a1 19 ad be 61 c1 4b be
       -0.12182273 -0.06935164 -0.33808616 -0.19897987
0000d0 67 cc 05 bc 87 55 81 bd f8 74 57 3c dd 6e 4a 3e
       -0.008166409 -0.06315141 0.013150446 0.19768853
0000e0 34 0f 25 be 3f b7 c2 3c 4c e6 96 be 1f ef a3 3e
       -0.16119081 0.02376902 -0.29472578 0.32018372
0000f0 92 3d 9f 3d a8 16 4f 3d 65 1f cc 3d 23 ba af bb
       0.077754155 0.050558716 0.099669255 -0.0053627654
000100 8a ba 3f bd 84 ac 18 3e 91 19 85 3d 76 2f 08 bd
       -0.046808757 0.1490956 0.06499017 -0.033248387
000110 39 ae 6c 3d a6 8d 03 be 1f f1 53 bd c0 d8 9c be
       0.05778334 -0.12847003 -0.051743623 -0.30634117
000120 43 eb 6a 3d 3a 7e 02 bd 78 5b 39 bd 32 af 04 3e
       0.05735327 -0.03185866 -0.045253247 0.12957457
000130 d0 bd 23 3e e5 59 e0 bd 34 0a ae bd 44 44 b7 bb
       0.15990376 -0.10954646 -0.0849804 -0.0055928547
000140 d8 7e 92 bd 96 24 0f be e4 60 8c bd 9d fb e5 3d
       -0.071531 -0.139788 -0.06854418 0.11229632
000150 86 4b 81 3c b1 0b 38 3d d3 f0 e6 3d 3c 19 aa bd
       0.015783083 0.044933025 0.11276402 -0.08305594
000160 4f 3d 22 be bf 95 ae bd 32 ff 88 3d 6b 00 7a bd
       -0.158437 -0.085246556 0.066893 -0.061035555
000170 02 f3 00 be 09 99 36 3d ab eb b1 bd 44 1f 01 3e
       -0.125927 0.04457954 -0.08687528 0.12609583
000180 90 e1 c9 3d b1 3a 47 3c b0 6e 22 be f7 09 dc bd
       0.09857476 0.012159989 -0.15862536 -0.10744088
000190 34 02 6c 3e f1 e9 40 3e 96 6c 8c 3d 88 b3 f1 bc
       0.23047715 0.18839242 0.068566486 -0.029504552
0001a0 eb 99 0e be 51 96 eb bb f8 0f dd bd 46 ff 26 3d
       -0.13925903 -0.00718955 -0.107940614 0.04077079
0001b0 a2 5c 4f 3d a8 06 50 bd 98 62 8b 3d a0 56 2d 3c
       0.05062545 -0.050787598 0.06805915 0.010579735
0001c0 8a 32 c8 bd 53 8e a4 bd ea a0 45 be 03 e5 89 be
       -0.097752646 -0.08034959 -0.19299665 -0.26932535
0001d0 8e af 00 3d 78 d7 85 be e7 20 86 3d e3 c2 06 3e
       0.031417422 -0.26140952 0.065492444 0.13160281
0001e0 18 1e 19 3e 62 51 9d bd 56 7f f3 bd e3 12 80 3e
       0.14952886 -0.07681538 -0.11889522 0.2501441
0001f0 0c 88 21 3d 06 de 5d 3e 9f 92 10 3d 73 24 39 3e
       0.039436385 0.21666726 0.03529608 0.1808031
000200 72 64 26 3e 63 8b 6d 3e d5 a0 1c 3d 58 8c 1a be
       0.16249254 0.23197703 0.03823932 -0.150926
000210 92 ad aa 3e dc 97 32 be 0b 60 92 3c 28 9a dc bd
       0.3333555 -0.17440742 0.017868062 -0.107715905
000220 c6 39 76 3d 6a 3b 65 be ae 1e 18 be dc 02 66 3d
       0.06011369 -0.22385946 -0.14855453 0.05615507
000230 6c b3 37 3e a7 4c 9d bd bb 4e 39 be c5 21 00 3e
       0.17939538 -0.07680636 -0.1809644 0.12512882
000240 9c e1 d5 bd d2 96 be bd bc d2 d1 3d 60 0f 8c bd
       -0.10443422 -0.093061104 0.102452725 -0.0683887
000250 46 3e 26 be 6b ef 5e 3c f5 fb 68 be 0f 95 72 3d
       -0.16234693 0.013606886 -0.22752364 0.059224185
000260 60 48 a3 3d f5 59 17 3e 1c e8 e4 3c 62 67 3e 3e
       0.07972789 0.1478041 0.02794271 0.18594125
000270 71 d6 ac be c0 23 26 bd 7e 22 5f 3d 89 b5 02 3e
       -0.33757356 -0.040561438 0.054476254 0.12764563
000280 9d 04 dd 3e c3 28 26 3e 22 f5 65 be f9 e6 9e be
       0.43167582 0.16226487 -0.22456792 -0.31035593
000290 ff ce ea 3a a6 17 95 3e 63 60 c1 3c d5 7f 04 be
       0.0017914473 0.29119605 0.023605531 -0.12939389
0002a0 07 83 9f bd 7f 40 79 bc 35 11 4c bd a2 99 0f bd
       -0.07788663 -0.015213131 -0.049821097 -0.035058625
0002b0 21 39 88 3d 5c 25 2b bd dc 60 ac bc a9 f2 ee 3d
       0.066515215 -0.041783676 -0.02104228 0.116673775
0002c0 3c 58 80 be d9 d9 99 bb 30 2b 69 be 17 80 0a be
       -0.25067317 -0.004695159 -0.22770381 -0.13525425
0002d0 5c ed 7f 3c 73 58 a6 bd 34 43 52 3e 94 c2 02 3e
       0.015620556 -0.08122339 0.20533448 0.12769538
0002e0 7d 79 ac 3e 99 6f 2d 3d 28 b6 36 be 59 67 87 bd
       0.33686438 0.042342756 -0.17842925 -0.06611509
0002f0 3c e1 ea 3d 9c 54 da 3c 09 0b 2f bd 69 b0 6f 3e
       0.11468741 0.026651673 -0.042735133 0.23407139
000300 2d d7 e6 bd e5 b0 77 bc 49 f4 2e 3b e9 74 f8 bc
       -0.1127151 -0.015117859 0.0026695898 -0.030329185
000310 83 fc 9c bd 34 90 e7 3d 2a c7 1d be 1b 00 ea bc
       -0.0766535 0.113068014 -0.15408006 -0.028564503
000320 f1 33 58 3c 31 68 06 3d ab 26 27 3c 58 b6 1f 3d
       0.013195978 0.03281421 0.01020209 0.038992256
000330 a9 89 74 3d 27 6a c9 bc 13 c4 47 be 5b 45 45 bd
       0.059701595 -0.02458675 -0.1950839 -0.048161846
000340 86 f2 75 3d c1 66 0c 3d 1f 3c 10 bd 61 4c a4 bd
       0.06004574 0.03427768 -0.035213586 -0.080223806
000350 99 01 02 be af 3d 37 bd 30 e9 d7 3d 88 25 32 bc
       -0.12695922 -0.04473656 0.10542524 -0.010873206
000360 56 b5 88 bd 90 38 98 3c 07 19 80 bd 2c 5c aa 3c
       -0.06675212 0.018581659 -0.062547736 0.020795904
000370 16 30 75 be 32 9c 8c bd c9 74 b3 bd e8 1b 21 3c
       -0.23944125 -0.068657294 -0.087625094 0.0098333135
000380 ea 8a 2d 3e 20 da 96 3d 23 b5 5a bd b4 d2 97 bc
       0.16947523 0.07365823 -0.0533954 -0.018533088
000390 6a 6a 18 3e e2 74 e7 3c 87 92 b2 bc f0 be cb bc
       0.14884344 0.028253976 -0.021798385 -0.02487132
0003a0 9b 2e 0f 3e 56 44 f6 bd 33 89 38 3b fb 77 5b 3d
       0.13982622 -0.12024753 0.002815795 0.05358122
0003b0 48 1a 23 bd 7b eb 34 bd 28 f6 fd 3d 22 4b 27 3d
       -0.039819986 -0.044169884 0.12400466 0.040843137
0003c0 6d 01 24 3d 97 36 87 bd fa 5a 6b bd f0 3f 17 3c
       0.040040422 -0.06602209 -0.05745981 0.0092315525
0003d0 7a cc d0 3d f0 3e dd 3d 18 97 15 3e 45 50 3f be
       0.10195251 0.1080302 0.14608419 -0.18682964
0003e0 d6 19 10 3d 17 c8 b5 3d 5c 92 d2 bd c5 91 9d 3d
       0.03518089 0.08876055 -0.10281822 0.07693819
0003f0 b6 b4 2c bd de ac 49 3d 35 90 a8 3c bb 69 07 3f
       -0.042164527 0.049237125 0.020576576 0.52895707

lstm.bias_ih_l0 f4 [256]
000000 c1 b1 7b be d9 c7 3b be d0 f3 8b be 15 06 3b be
       -0.24579526 -0.18337955 -0.27334452 -0.18264039
000010 26 08 4e bd 5e 66 46 bd 88 28 a0 be 07 9d f6 be
       -0.05030074 -0.04843747 -0.31280923 -0.48166677
000020 fc e1 3e be 70 c1 4c be 8b 6c 74 be 00 77 d1 bd
       -0.18640894 -0.19995666 -0.23869531 -0.102277756
000030 67 eb d9 bd e0 51 62 3d 6d d7 a8 be 6d 3f 7b be
       -0.106406026 0.055253863 -0.32976857 -0.24535914
000040 3a 01 e7 bd 58 c5 30 be 54 3c 96 be a2 0a 06 3d
       -0.11279531 -0.1726278 -0.29342902 0.032724984
000050 cb 98 96 be 67 7d 02 3e 47 5d 35 be 01 ff 4a bc
       -0.29413447 0.1274315 -0.17711364 -0.012389899
000060 14 e8 25 be 43 e9 9b be 5b 91 12 3c 50 9f 81 be
       -0.16201812 -0.30451402 0.008945788 -0.25316858
000070 d9 e4 f0 bd 0c b4 0d bf a4 24 fe bd bc e5 77 be
       -0.11762399 -0.55352855 -0.124093324 -0.2420873
000080 64 1f f5 3c 2e c6 c1 bb 19 48 af bd 12 92 0b 3e
       0.029922195 -0.0059135174 -0.085586734 0.1362994
000090 ba cf 86 be dd f9 5a bd f0 6c bd 3d 90 53 86 be
       -0.26330358 -0.053460944 0.09249294 -0.26235628
0000a0 22 10 84 be bc 65 d9 bd d2 3d a0 3d 47 40 14 be
       -0.25793558 -0.106151074 0.07824291 -0.14477645
0000b0 c0 34 ad bd 07 64 8f be 9f ff a7 be e7 6b 0f be
       -0.08457327 -0.28006002 -0.3281221 -0.14006005
0000c0 d3 a6 cc bd 15 1f 2e bf ba 42 22 be 39 7b 2a be
       -0.09992757 -0.6801618 -0.15845767 -0.16648568
0000d0 b1 12 ad be e1 cf 02 bf fb ee 67 be f1 ca 9c bd
       -0.33803323 -0.5109845 -0.22649758 -0.076558955
0000e0 17 3e f2 bd 4c a9 b0 bd 8e 69 8f be ac 52 a1 be
       -0.11828249 -0.08626041 -0.2801022 -0.31508386
0000f0 2a 5a aa bd 7d e1 86 be 88 55 42 3c 73 57 47 be
       -0.08317979 -0.2634391 0.011861213 -0.19466953
000100 ef 0d a0 be 9f fc b6 be 42 5d c7 be 4b db 08 be
       -0.3126063 -0.3573961 -0.38938338 -0.13364904
000110 f2 a1 0d bf f1 87 62 be d3 5f cf be bb bc f8 be
       -0.55325234 -0.2212217 -0.40502796 -0.4858149
000120 91 cc 74 be b8 90 9c be dd 7d 6c be cf 44 aa be
       -0.23906161 -0.30579162 -0.23094888 -0.33255622
000130 5d 9e bb bd 28 ee 15 be 47 73 9e be 44 74 69 be
       -0.09161065 -0.1464163 -0.30947325 -0.22798258
000140 db 69 72 be 1a c1 9f bd b8 bf bc be 9a 33 ab bd
       -0.23673193 -0.07800503 -0.3686502 -0.083594516
000150 6b 0b e1 be e0 6d e7 bc e9 9c 3c be ba e8 6c bc
       -0.43954024 -0.028250635 -0.18419231 -0.014459783
000160 b1 23 d7 bd f6 41 71 be a2 09 38 be fe c4 ec be
       -0.105048545 -0.23560318 -0.17972425 -0.46244043
000170 6a 86 ac 3d 8f 18 b0 be 79 32 a1 be 62 c3 bb be
       0.08424075 -0.34393737 -0.3148382 -0.36672503
000180 fc fa e3 3d 7c 1f 87 be 27 d2 0c bf a7 fe f6 bd
       0.11131856 -0.26391208 -0.5500817 -0.1206029
000190 46 53 09 be dc f1 95 be 37 bf 8a bd 5a 4c 37 bf
       -0.13410673 -0.29286087 -0.067747526 -0.7160088
0001a0 0d 30 5a be ae ec f4 be 92 1b 33 bd 8a 96 53 be
       -0.21307392 -0.47836822 -0.043727465 -0.20662895
0001b0 50 63 03 be 66 5b 30 be 90 e7 f8 be 0d 02 cc be
       -0.12830853 -0.17222366 -0.48614168 -0.39845315
0001c0 d6 cf 9e be d6 0a 27 bf bf 72 9c be 0b fd 03 bf
       -0.3101794 -0.6525091 -0.30556294 -0.5155799
0001d0 5c 96 ac be 5a e0 01 bf 99 4c 09 be fc ad e6 bd
       -0.33708465 -0.5073296 -0.13408126 -0.11263654
0001e0 ce b0 83 be 6b b7 a6 be 0d d5 bc be a8 69 8a be
       -0.2572083 -0.32561812 -0.36881295 -0.27033734
0001f0 0f 72 1c be 0d 10 10 bf ae 31 2b be 0b 15 45 be
       -0.15277885 -0.5627449 -0.1671817 -0.19246309
000200 d5 26 43 3e d2 c3 f1 bd 75 4f 75 3c 0e b4 03 be
       0.19057782 -0.11804928 0.014972557 -0.12861654
000210 c1 08 6b be 4e 68 6c 3e f4 46 0b 3e f5 6c 14 3d
       -0.22952558 0.23086664 0.13601285 0.036236722
000220 bd 69 13 3e f7 3f 34 3e 71 6b 59 3e 22 e2 ea bd
       0.14395805 0.17602526 0.21232392 -0.11468913
000230 ba 5c 88 be 1d 96 3b be 3e dc 31 3e 5d b4 48 be
       -0.26633245 -0.18318982 0.17369172 -0.19600053
000240 7f fd 5a 3e 94 e4 8c 3d e8 db ee bd bd 07 5a be
       0.21385764 0.06879535 -0.116630375 -0.21292014
000250 54 c9 6c 3e 80 f6 45 be dd 9c ce 3d 50 25 41 be
       0.23123676 -0.19332314 0.10088513 -0.1886189
000260 94 94 26 3e 72 fe 4a 3e 64 77 21 3e e1 73 1f 3e
       0.16267616 0.19823626 0.157682 0.15571548
000270 e6 55 8b 3e 10 c1 eb 3c 3f e1 cd 3d 5d de 89 be
       0.27213973 0.028778583 0.10052728 -0.26927462
000280 eb e1 47 be f5 55 3c be 05 73 61 3e 27 9d 85 3e
       -0.19519775 -0.18392165 0.22016533 0.2609646
000290 0c 26 95 bd 54 da 80 be aa f1 1e 3e 89 32 8c bc
       -0.072826475 -0.2516657 0.15521875 -0.01711394
0002a0 af 0c a3 3c ae d4 25 3e 45 aa 65 3e 2b 55 c1 bd
       0.019903509 0.16194412 0.22428234 -0.094400726
0002b0 75 69 8e be 5f 97 89 bd d1 42 10 3e a0 e2 98 be
       -0.27814832 -0.06718325 0.14087988 -0.298604
0002c0 2a 08 06 3e a1 ce 38 3e 40 e7 2d 3e 0a 69 66 3b
       0.13089052 0.18047573 0.16982746 0.0035157823
0002d0 09 24 83 bc 3a 56 2a 3e 1f 4f 26 be d1 24 ac bd
       -0.016008394 0.16634455 -0.1624112 -0.0840546
0002e0 42 6b 81 be ef ee 00 be 71 b7 c9 3d 4f d9 5c bd
       -0.25277144 -0.12591146 0.09849442 -0.05391818
0002f0 2c 7f 0d be 84 65 75 bb 65 64 01 be e7 ab 0e 3d
       -0.13818043 -0.0037444541 -0.12635954 0.034831908
000300 c6 3a 94 be c1 19 a6 be 71 9d a4 be b0 fa 1c 3d
       -0.2895109 -0.32441524 -0.32151368 0.03832501
000310 94 df 2b be 54 ad f3 bd b4 76 86 be d5 9e 9a be
       -0.16784507 -0.11898294 -0.26262438 -0.30199304
000320 de 55 fa bc bd 94 b7 bc 85 71 b6 be 06 1f 18 be
       -0.030558523 -0.022409791 -0.35633484 -0.14855585
000330 fe e2 1d bd ca 8f 9c bd 2f 42 b5 be 57 6f 9c be
       -0.038546555 -0.07644613 -0.35402057 -0.30553696
000340 09 ae 1c be 86 05 85 be 59 ce db be a3 b7 49 3c
       -0.15300764 -0.25980777 -0.42930868 0.012311849
000350 cd ad c1 be 5d f5 09 3c d5 ba 2a be 9a c5 a6 bd
       -0.37827912 0.008420316 -0.16672833 -0.08143158
000360 6f a4 1e be d7 93 ca be 5c 53 1e be 54 ed 8f be
       -0.15492414 -0.39565918 -0.15461487 -0.28110754
000370 0a fa 79 bc 4f 19 12 bf 2f d3 45 be 26 1f 01 be
       -0.015257368 -0.5706987 -0.19318841 -0.12609538
000380 8a 87 e8 3b f1 b5 d8 bd e6 31 8e 3c 50 5a a8 3d
       0.0070962356 -0.105815776 0.017357778 0.08220351
000390 c3 1a 68 be 1b 7a 02 be 2e dc b3 bd f8 94 95 be
       -0.22666459 -0.12741892 -0.0878223 -0.29215217
0003a0 73 9f 83 be 04 88 00 be 6a bd 50 3e 81 ea 0d be
       -0.25707588 -0.12551886 0.20384756 -0.13858987
0003b0 33 d5 bb 3d 71 53 74 be 6e 64 a2 be bf 50 41 be
       0.09171524 -0.23859955 -0.31717247 -0.18878458
0003c0 06 d1 12 be 6e b9 2d bf 32 a6 9a be d1 1c 93 be
       -0.14337549 -0.6786107 -0.30204922 -0.28732923
0003d0 f0 a9 ab be dd d4 fa be a7 dd 85 be fb d9 83 be
       -0.3352809 -0.48990527 -0.2614567 -0.25752243
0003e0 ba fd 44 bd 0c c9 0e be 1f 51 a5 be df 2b b0 be
       -0.048093535 -0.13943881 -0.32288453 -0.3440847
0003f0 d7 c5 77 bd b1 6b 81 be 9a dc 04 be 6e ee 63 be
       -0.06049141 -0.25277475 -0.12974778 -0.22258922

lstm.bias_hh_l0 f4 [256]
000000 43 5a 8f be 82 b0 8e be 4b 8f b9 be 00 f9 9c bd
       -0.27998552 -0.2786904 -0.36242136 -0.076646805
000010 ee e8 c3 bd aa d6 81 3d d9 4c b5 be 0b fa e8 be
       -0.09565912 0.06339772 -0.35410193 -0.45503268
000020 74 50 28 be 3b ea 29 be e6 79 bd be 10 5a 5d bb
       -0.1643694 -0.16593258 -0.37007064 -0.0033775605
000030 e6 33 01 bd 17 c3 23 be 9a 8c 67 be 09 44 c2 be
       -0.031543635 -0.1599239 -0.22612229 -0.37942532
000040 46 c3 2e 3d d6 8d 66 be e1 ec bf be 1b f2 54 3d
       0.042666696 -0.22515044 -0.37485412 0.051988702
000050 77 b9 ab be 28 4c 45 3e 10 c1 bf bd fd cf 1c bd
       -0.33539936 0.19267333 -0.093629956 -0.03828429
000060 03 e3 c1 bc eb 15 b7 be 6c 1d e6 bd 7e 45 4b be
       -0.023667818 -0.3575891 -0.112360805 -0.19850728
000070 5d e9 96 bd ec bf 3b bf 05 33 1b 3b c1 de 07 be
       -0.07368729 -0.73339725 0.0023681533 -0.13268568
000080 13 13 a8 bd 43 b7 14 bd 25 37 17 be 13 07 55 3e
       -0.08206763 -0.036307584 -0.1476713 0.2080348
000090 3f 92 84 be 57 6d b5 3c fb ed 3c bd c0 c5 5b be
       -0.25892827 0.022146864 -0.046125393 -0.21462154
0000a0 33 d6 46 be fc 30 9a be 65 83 b0 3d 25 9f 05 be
       -0.19417648 -0.30115497 0.086188115 -0.1304899
0000b0 39 b5 05 bd 19 be 95 be aa 76 af be 24 97 b7 bd
       -0.03264353 -0.29246596 -0.3427022 -0.08964375
0000c0 13 d1 54 be 80 6e 30 bf c1 48 c4 bd d5 27 c9 be
       -0.2078288 -0.6891861 -0.09584189 -0.39288202
0000d0 a8 9b 8b be ac d5 09 bf 3d 5d 60 bd 97 47 b9 bd
       -0.27267194 -0.5384166 -0.05477642 -0.09046858
0000e0 f1 bf 03 be e2 72 ff bd cd 58 80 be 7c f1 1c be
       -0.12866189 -0.12473084 -0.2506775 -0.15326494
0000f0 72 cd 0c be cc 9c ea be 88 e5 6e be 66 2b ae be
       -0.13750246 -0.45822752 -0.23329747 -0.34017485
000100 f6 4f c1 be 94 ec f6 be fc e3 a8 be 36 e1 26 be
       -0.37756318 -0.4822737 -0.32986438 -0.16296849
000110 91 66 e4 be 6a 9f 17 be 41 86 d2 be 3a 78 f6 be
       -0.44609502 -0.14806905 -0.41118053 -0.481386
000120 c6 66 1d be 62 46 bf be c3 d4 9a be f9 f2 71 be
       -0.15371236 -0.37358385 -0.3024045 -0.23627843
000130 0e 00 12 be b0 3c 45 be e5 f8 8b be e0 0f 9f be
       -0.14257833 -0.19261432 -0.2733833 -0.310668
000140 21 83 2b be 00 41 3b be 52 2d b8 be 97 c5 83 3a
       -0.1674924 -0.18286514 -0.35972077 0.0010053393
000150 25 fc 90 be aa f5 c3 bb 34 7f 04 be a6 84 63 be
       -0.2831737 -0.005980213 -0.12939149 -0.2221857
000160 7d 6d ef bd 8a 16 92 be 38 53 69 be 98 17 d6 be
       -0.11690805 -0.2853282 -0.22785652 -0.41814876
000170 e0 60 d4 3d b3 4b 06 bf de 4b a4 be 92 d2 e8 be
       0.1037004 -0.5245926 -0.32089132 -0.45473152
000180 be 02 58 3e 2a 33 8f be 6f 69 df be 95 a8 30 be
       0.21094796 -0.27968723 -0.43635127 -0.17251809
000190 0c db 94 be 69 1b 98 be c6 45 18 be 5e 04 09 bf
       -0.2907337 -0.29708412 -0.14870366 -0.5352229
0001a0 f7 e8 9c be c5 bf 93 be ac b1 81 bc 52 08 56 be
       -0.30646488 -0.28857246 -0.01583179 -0.20901611
0001b0 51 b1 1b be a8 32 44 be 94 99 fd be 01 77 5b be
       -0.1520436 -0.19159949 -0.49531233 -0.21432115
0001c0 81 99 05 bf c3 a0 f9 be 5e 88 b5 be 11 81 fa be
       -0.52187353 -0.48755464 -0.35455602 -0.48926595
0001d0 a5 84 91 be 0e d6 f9 be 27 4f 39 bd 53 bc d2 bd
       -0.28421512 -0.48796123 -0.0452415 -0.10289826
0001e0 81 44 b4 bd 98 f0 97 be e3 0d 48 be 47 07 86 be
       -0.088021286 -0.29675746 -0.19536547 -0.26177427
0001f0 ef 37 9b be e2 d3 04 bf d1 73 88 be 88 3c 91 be
       -0.3031611 -0.5188581 -0.2665086 -0.28366494
000200 b2 18 84 3c 22 fc c6 bd a3 6a 97 3d ae 96 35 be
       0.016125057 -0.09716059 0.07393386 -0.17733261
000210 4a 1e 7a bd 79 65 71 3e 68 89 04 bd 1d 43 02 3e
       -0.061064042 0.23573865 -0.032357603 0.12720914
000220 e2 d8 4d 3e 34 46 72 3e 54 0d ac 3d 80 09 54 be
       0.20102265 0.23659593 0.0840098 -0.20706749
000230 19 70 23 be 1f ee 34 be 68 ab 49 3e 9d aa 18 bd
       -0.1596073 -0.17668961 0.19694293 -0.037272085
000240 b7 0e 69 3e a1 29 5a 3d f8 49 35 be bb ea 56 be
       0.2275952 0.053262357 -0.17703998 -0.2098798
000250 67 11 be 3d a2 48 49 be 1d b9 99 3e 52 68 56 be
       0.09280663 -0.19656613 0.30024043 -0.20938233
000260 10 04 19 3e 02 31 0c 3d 0a c1 4a 3e 8e 1d 98 3d
       0.14942956 0.034226425 0.19800201 0.07427512
000270 12 7e 07 3e 07 66 64 bd 1d bc 94 3e ee 10 b9 bd
       0.13231686 -0.055761363 0.2904977 -0.09036432
000280 2c 21 8f be bf ae 85 be 68 d6 21 3e 7a 29 53 3e
       -0.27954996 -0.26109883 0.15804446 0.20621291
000290 f2 82 d8 bd 9c 30 09 be 6b 73 91 3e 2e 33 4b 3e
       -0.10571851 -0.1339745 0.2840837 0.19843742
0002a0 59 9f de 3d be 7a 68 3e 3e 68 76 3e 9e af 76 be
       0.10870237 0.22703072 0.24063203 -0.2409043
0002b0 1d 2f d7 bd ab 74 f5 3d 8d 8f 40 3e b0 04 a9 bd
       -0.10507033 0.11985143 0.1880476 -0.08252847
0002c0 6c 93 87 3e 81 00 81 3d 23 12 29 3e 6d d1 2c 3e
       0.2647966 0.06298924 0.16510825 0.16876765
0002d0 c2 a6 0f 3e d4 d0 3e 3e 62 ae 5b be 3d 87 3d be
       0.14028457 0.18634349 -0.2145324 -0.1850862
0002e0 75 f2 7d be 28 34 3e be be be 71 3e 9f 7f f3 3b
       -0.24799521 -0.18574584 0.23607919 0.007430985
0002f0 0f 0e 8a be 1c 28 9e bd e7 82 6f be e1 3e e4 bd
       -0.2696385 -0.07722494 -0.23389779 -0.11144806
000300 87 b3 d0 be 1d 6f 47 be 45 94 5b be 76 6f 1d bd
       -0.40761968 -0.1947598 -0.21443279 -0.038436376
000310 3c 13 e4 bd 08 bd c3 3d 21 b8 dc be 96 96 eb be
       -0.11136481 0.09557539 -0.4310923 -0.46013325
000320 de d6 20 be fe 27 f2 bd 38 85 a0 be f3 6f 94 bd
       -0.15706965 -0.11824034 -0.31351638 -0.07247915
000330 ff 5e 4a bd 69 52 be 3b f8 50 72 be 28 a2 75 be
       -0.049407 0.005808164 -0.236637 -0.23987639
000340 04 05 15 3d ee 80 ad be 47 2f ce be cb 8b 09 3d
       0.036381736 -0.33887428 -0.40270445 0.033580583
000350 20 3a ae be 2d 5a a4 bc fa c2 aa bd 43 6a 58 bd
       -0.3402872 -0.02006253 -0.0833797 -0.052835714
000360 67 99 68 be 5b 2c b5 be 52 ac 4d bd 92 61 40 be
       -0.22714768 -0.35385403 -0.050213166 -0.1878722
000370 dd dd 20 be 54 00 02 bf 39 12 0c be 5e 42 5d be
       -0.15709634 -0.5078175 -0.13678826 -0.21607348
000380 10 a8 f1 bc 2b e8 94 3c 52 a8 13 be 59 0f 25 3e
       -0.029499084 0.018177113 -0.14419678 0.16119136
000390 66 0b 28 be f7 ff 97 bc 68 2d e6 3d 9e 81 7e be
       -0.16410598 -0.01855467 0.11239129 -0.24854133
0003a0 c5 fc 2d be f4 be 8d be 41 35 c4 bc 27 81 04 be
       -0.16990955 -0.27684748 -0.023951175 -0.12939893
0003b0 9a d3 4e bd 70 04 70 be 33 11 c4 be ae 49 83 be
       -0.050494768 -0.23439193 -0.38294372 -0.2564215
0003c0 39 1f db bd 88 a4 08 bf 60 25 8b be 49 c6 9e be
       -0.106993146 -0.53376055 -0.27176952 -0.31010655
0003d0 c1 d9 a0 be 29 cc 10 bf 03 36 55 bd 1e 0f 0f be
       -0.31416133 -0.56561524 -0.052053463 -0.1397061
0003e0 6e 50 6e 3d cd d2 ea bd 00 f0 59 be 17 37 a1 be
       0.058182172 -0.11465988 -0.21282959 -0.31487343
0003f0 56 18 28 bd 73 58 8c be 4b 7c 09 bc 4f 0a 98 be
       -0.041038834 -0.2741123 -0.00839145 -0.29695365

lstm.weight_ih_l1 f4 [256, 64]
000000 b5 03 09 3e 5b 2c 6f 3e 9d f8 c7 bd 21 46 92 3e
       0.1338032 0.23356764 -0.09764216 0.2856913
000010 2b 87 72 3e ae 91 14 bf 21 7b b4 3b b7 be 00 bf
       0.23684375 -0.5803479 0.005507842 -0.5029101
000020 fc b9 8b bc 58 a9 e4 be 32 fd 81 39 9f 63 5d 3e
       -0.017056458 -0.4466045 0.00024793443 0.21620034
000030 63 02 24 3f 1b b2 b2 3d d0 98 21 be 58 a0 ae 3e
       0.6406614 0.08725377 -0.1578095 0.34106708
000040 e7 f4 cf bd 1a 01 5e be 6b 43 b4 3e 24 3f 09 3d
       -0.10154133 -0.21680108 0.35207686 0.03350748
000050 99 f6 5a be d0 2f 35 3e 1a 37 1d bf 5e 4a d4 3e
       -0.21383132 0.1769402 -0.61412203 0.41462988
000060 28 9d 25 3d 32 ce 2e be 3a b9 61 be 7d 07 5b 3d
       0.04043308 -0.17070845 -0.22043315 0.05347394
000070 31 8f 2f bf a7 64 f9 3d 44 99 2d be b9 f7 e5 3e
       -0.6857787 0.12177401 -0.16952997 0.4491556
000080 c2 2f 7e 3f b7 2b 51 3e 76 09 74 be 1a 66 1e bf
       0.9929162 0.20426832 -0.23831734 -0.61874545
000090 4b 51 a6 3e 04 c6 a7 3e de 48 b8 be 81 fe ee bc
       0.32483897 0.3276826 -0.35993093 -0.029174091
0000a0 01 9c a6 bd eb af 58 be e1 f0 3b bf 82 ec 45 3e
       -0.08135224 -0.21160857 -0.7341443 0.19328502
0000b0 d6 0f 21 3e b5 79 81 3c 8b 64 20 be 0a d8 05 3f
       0.15728697 0.015805105 -0.15663354 0.52282774
0000c0 83 a9 b3 be aa 8a 24 be 92 fa ac be 3b 22 da bd
       -0.35090265 -0.16068521 -0.3378492 -0.1065106
0000d0 dd c5 08 be ed f5 68 be e3 8b 40 3f 45 e1 58 3e
       -0.13356729 -0.22750063 0.7521345 0.21179684
0000e0 fd 51 41 3f 90 c0 14 3d 10 a4 bc be c7 b0 85 3d
       0.7551573 0.036316454 -0.3684392 0.06527858
0000f0 61 83 e1 3d 5e 21 df 3d b5 ca 81 3d c1 56 41 3f
       0.11011387 0.10895036 0.063374914 0.75523
000100 02 f6 51 be fc e2 11 3e 5f 93 38 be 5c c5 f9 3e
       -0.20504001 0.14246744 -0.18024968 0.48783386
000110 dd d0 8c 3e 0c 21 02 bf 2d 3d 9a be 6d 38 10 bf
       0.275031 -0.50831676 -0.30124798 -0.563361
000120 e5 e4 79 be 0e b1 c9 be f8 b6 17 be eb 68 b7 3e
       -0.24403723 -0.39392895 -0.14815891 0.35822234
000130 db fe 08 3f 1a 24 9f 3e a5 94 93 be 37 bf e7 3d
       0.5351388 0.3108223 -0.28824344 0.11315768
000140 6f a3 9c be c1 d5 ac 3d 1b 2b 41 bc 99 80 77 3e
       -0.3059344 0.08439208 -0.011790062 0.2417015
000150 e2 14 97 be d2 a6 b0 3e f4 ca 01 bf fd a6 a0 3e
       -0.2950812 0.34502274 -0.50700307 0.31377402
000160 fb a9 26 be ae f5 82 bd b0 2d cd be 79 b2 d4 bd
       -0.1627578 -0.06394516 -0.4007392 -0.103856035
000170 ce 8f f4 be f4 a4 0f be 7b 52 b3 be b7 7d 91 3e
       -0.47765964 -0.14027768 -0.35023865 0.28416225
000180 f0 d4 2e 3f df ce a2 3e 88 ac 17 be ed 60 e2 be
       0.68293667 0.31798455 -0.14811909 -0.44214574
000190 5a 49 5f 3e d4 a1 06 3f b2 de c4 be 2d 1f 95 be
       0.21805325 0.5259068 -0.38451153 -0.29125348
0001a0 d4 bb 77 be a1 96 39 be 3e 68 10 bf 67 e4 a3 3e
       -0.24192744 -0.18123867 -0.5640906 0.32010195
0001b0 c3 28 e6 3e 0e b6 5f be bc 43 89 3d 4a b4 ed 3e
       0.44952974 -0.21846792 0.067023724 0.46426612
0001c0 f6 3a f5 be 2b d9 b1 3d b1 ed 53 be d3 75 b2 be
       -0.47896546 0.08684 -0.20696141 -0.34855518
0001d0 ec df 9a be 62 c1 95 be 3e 14 04 3f 77 29 cb 3e
       -0.30248964 -0.29249102 0.5159339 0.39680073
0001e0 f2 b2 22 3f 46 50 be 3e 9d 9b c0 be 38 6b 27 3e
       0.635543 0.3717062 -0.37618724 0.16349494
0001f0 77 17 8b 3e b9 36 73 3e 84 28 b8 3e 35 85 34 3f
       0.2716634 0.23751344 0.3596841 0.7051576
000200 8f 44 c3 bd a3 98 8e 3e d9 14 61 be 34 93 b5 3d
       -0.09534561 0.27850828 -0.21980609 0.088659674
000210 32 1d 53 3e ef 13 68 be 65 54 bf bd 97 47 f2 be
       0.20616606 -0.22663854 -0.09342269 -0.47320244
000220 1c 07 d9 bc 6c c2 7d be 83 4e 17 be 65 08 50 3e
       -0.026492648 -0.24781197 -0.14776044 0.20315702
000230 26 de 25 3f 60 c8 23 3e 5d d9 6f bd 77 2c d6 3c
       0.64792097 0.15994406 -0.058556903 0.02614425
000240 fc 7f 48 be ad 80 17 3e 9d 9d 25 3e 76 48 88 3e
       -0.19580072 0.1479518 0.16173406 0.26617783
000250 3b d9 b5 be 1d a4 31 3e e2 5f 02 bf 58 27 cb 3e
       -0.35517296 0.1734776 -0.50927556 0.39678454
000260 8c 5e 12 bd 43 82 52 be 38 9c 41 be 24 9b 99 3d
       -0.0357347 -0.20557503 -0.18907249 0.07500294
000270 a7 d3 1a bf 21 dc 81 bd e2 70 78 be 45 28 5e 3e
       -0.60479206 -0.063408144 -0.24261811 0.21695049
000280 9c c4 43 3f 8e 98 75 3d c1 7a 13 be ad 5a d4 be
       0.7647188 0.05995994 -0.14402296 -0.4147543
000290 10 87 f8 3e fc 5b b3 3e 47 90 c0 be f4 d7 81 be
       0.48540545 0.35031116 -0.37610075 -0.25360072
0002a0 7b 06 67 be 3a 01 b5 bd 91 ad 32 bf 77 cf 79 3e
       -0.22561066 -0.088381246 -0.6979609 0.24395548
0002b0 c7 d2 b8 3e 63 ad a2 bd f9 83 05 3d 06 c2 95 3e
       0.3609831 -0.07943227 0.032596562 0.2924959
0002c0 df 41 be be 65 bf 22 be 8f d6 8b be a1 ae 98 bd
       -0.3715963 -0.15893324 -0.27312133 -0.07455183
0002d0 71 ab c1 bd 5d f6 95 3d 3b 91 0d 3f 22 e5 48 3e
       -0.09456528 0.07322381 0.5529973 0.19618657
0002e0 95 6d 14 3f 2e 42 30 3e eb 01 43 be 09 e1 01 3c
       0.5797971 0.17212746 -0.190437 0.007927188
0002f0 b6 aa ed 3d 3c 7c 57 3e a4 67 2a 3e 09 32 28 3f
       0.11604826 0.21043485 0.16641098 0.6570135
000300 e1 00 15 bc fa 5c 4c 3e 4a 38 1a 3b 1f 93 47 bc
       -0.009094448 0.19957343 0.0023532086 -0.0121810725
000310 f1 82 94 3e 6f 98 93 be 22 65 61 be 79 3f cb be
       0.2900615 -0.28827235 -0.22011235 -0.39696863
000320 ee 67 7c 3d 35 4c 49 be 8a 1a 4c bc b5 7f 18 3d
       0.061622553 -0.19657977 -0.012457499 0.037231166
000330 26 1a fc 3e 9b db 14 3d b1 6e 61 be f5 49 a2 bc
       0.492387 0.036342245 -0.22014882 -0.019810656
000340 39 e2 1e 3d a2 6b 5c 3d 11 19 75 3e d0 f3 b6 bc
       0.03878996 0.053813584 0.23935343 -0.022333056
000350 86 4a 89 be 22 24 da 3d e2 2f f5 be d3 5c 17 3e
       -0.2681467 0.10651423 -0.47888094 0.14781503
000360 ee 4c 81 3d 1f 5e 57 bd cc 75 b5 bd 3d 25 ab 3c
       0.06313501 -0.052579995 -0.088603586 0.02089178
000370 fe 51 1e bf de c5 6b 3a 11 78 36 be 2e 41 54 3e
       -0.6184386 0.0008994023 -0.17819239 0.20727989
000380 6a 44 4c 3f e2 8f 76 3e 3a be af be 6a 57 38 be
       0.7979189 0.24078324 -0.3432482 -0.18002096
000390 7c 3d 71 3e 35 3a 62 3e 5b 58 34 be 5e 23 f3 bd
       0.2355861 0.22092517 -0.1761183 -0.1187198
0003a0 17 86 95 bd 47 c1 07 bd c6 18 bf be 5f dd 0a bd
       -0.07300966 -0.033143308 -0.37323588 -0.033902522
0003b0 ee 64 8e 3e 1f c9 53 bb 07 ab 5c be 32 78 ba 3e
       0.27811378 -0.0032315922 -0.21549617 0.36419827
0003c0 d0 e3 94 be 85 f5 01 be 0b 17 76 be b9 a9 3b be
       -0.29080057 -0.12691315 -0.24032228 -0.18326463
0003d0 12 e9 47 be 6c 8b b8 3b 5b 4a f5 3e d2 69 09 3e
       -0.19522503 0.0056318548 0.4790829 0.13419273
0003e0 3e da 05 3f 7b d6 4a 3e cc 82 25 be 3e 5c 90 3d
       0.52286136 0.1980838 -0.16163176 0.07048844
0003f0 b2 45 2c 3e c7 71 d8 3d a0 2e be 3d dd 0b 1d 3f
       0.16823462 0.10568576 0.09286237 0.61346227

lstm.weight_hh_l1 f4 [256, 64]
000000 6b be 9c bd 85 98 4d be ae fc 53 be c7 cf 80 3e
       -0.07653507 -0.20077713 -0.20701858 0.25158522
000010 97 ae 0f be 7f 21 19 be b5 74 e6 3d 10 f1 0f be
       -0.14031444 -0.14954184 0.11252729 -0.14056802
000020 57 04 3b 3e 21 a3 b1 3b 50 4d 5a 3d 5c d7 55 3e
       0.18263374 0.005421058 0.053296387 0.20882934
000030 b6 e6 72 bc 27 04 ac 3d e1 8f 9e bd 6a 90 c0 bd
       -0.014825514 0.083992295 -0.077422865 -0.09402545
000040 43 de f2 3e d7 30 b7 3d a7 25 a8 3e 10 df 13 be
       0.47435197 0.08944862 0.32841226 -0.1444056
000050 a8 60 e8 be 4b 7f ea 3e 6c fd 41 be c5 c5 b8 bc
       -0.45386243 0.45800242 -0.18944329 -0.022555241
000060 8c 3e 2e 3d a9 03 95 3d c2 9f 34 be 4e 43 c3 bd
       0.042540118 0.07276089 -0.17639068 -0.09534322
000070 e9 a1 54 be 4f 9b 93 3d c7 eb d0 3e 26 66 4e 3e
       -0.20764889 0.07207357 0.40804884 0.20156154
000080 bf 11 8a bd ef 51 f9 be 1a cb fd 3d c1 d6 1a 3e
       -0.06741666 -0.48695323 0.12392254 0.15120985
000090 1f 7b 98 bd 54 51 ef 3c c2 5f d0 3e bc 4d 22 3e
       -0.074453585 0.029213585 0.40698057 0.15849966
0000a0 65 e8 ec 3e b6 ed 6b 3b 91 8b 44 3e 21 b5 c5 be
       0.46271053 0.003599984 0.19193865 -0.38614753
0000b0 7d 4f b2 3d 30 de 1a bd c9 08 2d 3e 17 07 1d bf
       0.087065674 -0.03780955 0.16897883 -0.61338943
0000c0 3e d9 d0 3d 47 2b 01 3e ae f4 12 bf f0 2b 89 3d
       0.10197686 0.12614165 -0.574046 0.066978335
0000d0 b4 d6 9a 3e 39 3b 0b be f7 f8 c1 bd 15 dc 92 be
       0.3024193 -0.1359681 -0.094713144 -0.28683534
0000e0 b5 c5 1d 3e a3 b7 0b 3e 81 a0 58 bd 3b 31 c6 3e
       0.1540745 0.1364427 -0.052887443 0.38709435
0000f0 51 bf 44 be 2b 6d d3 3d db e0 e4 bd f4 42 86 3e
       -0.19213606 0.103235565 -0.111757 0.26222956
000100 f3 32 9c 3e db bf 0e be 61 4f 75 be 36 58 05 3e
       0.3050762 -0.13940375 -0.23956062 0.13021931
000110 b2 9c 87 be e6 d2 93 be ad b0 58 3e ce 05 52 3e
       -0.26486737 -0.2887184 0.21161146 0.20510027
000120 6f cf 8b 3e 5f eb 92 be 1d 02 d2 3e c5 a8 a7 3e
       0.27306697 -0.286952 0.41017237 0.32745948
000130 df 43 a7 be 9a cf 26 3e ce b3 c4 be ad ad 4f 3e
       -0.3266897 0.16290131 -0.3841843 0.20281096
000140 08 fb 1b 3f 9f c3 b8 3e a5 d4 9c 3e 1b 8c a2 be
       0.6092992 0.36086747 0.30630985 -0.31747517
000150 41 08 25 bf a6 f4 58 3f 2b 43 ba be 55 fc 64 be
       -0.6446572 0.84748304 -0.3637937 -0.22361882
000160 bd 48 a4 be c8 64 0f 3e 87 26 a8 be 4d dc 65 be
       -0.32086745 0.14003289 -0.32841894 -0.2244732
000170 72 62 4f be 47 dc 69 3e 91 5e 00 3f bc 38 50 3e
       -0.20252398 0.22837935 0.50144297 0.20334142
000180 c7 c4 d8 be b2 7e 48 bf d4 05 db be ab dc 3a 3e
       -0.4233763 -0.7831832 -0.42777884 0.1824824
000190 1d 5d 80 be 09 7b 42 be 7f 72 5f 3f c9 23 42 3e
       -0.2507104 -0.18992247 0.8728408 0.18958963
0001a0 4f d4 40 3f 9f ac 3b 3e cd 8e a6 3e 9a 10 11 bf
       0.7532396 0.18327568 0.32530823 -0.56665957
0001b0 d4 ad 74 3e 77 b3 6f be 99 d2 df 3e 18 7f 31 bf
       0.23894435 -0.23408304 0.4371536 -0.69334555
0001c0 f1 4d 83 3e 04 4d 00 3e 73 bb 2a bf 45 44 85 be
       0.25645402 0.12529379 -0.66692275 -0.26028648
0001d0 43 43 e8 3e 50 44 5a be b4 49 8f be a1 31 21 bf
       0.45363817 -0.21315122 -0.2798592 -0.6296635
0001e0 23 d6 39 3e 8b d8 68 3e ea f4 a6 3d 29 9b 1f 3f
       0.18148093 0.22738855 0.081521824 0.6234613
0001f0 e1 17 b3 be 12 c0 51 3e c7 ef 24 be e6 17 cb 3e
       -0.34979156 0.20483425 -0.16107093 0.3966667
000200 41 09 57 bd cf 4d 25 be 4d 4c d9 bd ed fb df 3d
       -0.05249906 -0.16142963 -0.10610256 0.10936723
000210 41 97 b2 bd 9b c1 98 be 0b b9 31 3e bb 0e 02 be
       -0.08720256 -0.2983521 0.17355745 -0.12700932
000220 a2 4d 94 3d bc 2c 47 3c 2c ac 4c 3d f3 a4 c0 bc
       0.0724137 0.012156662 0.049968883 -0.023516154
000230 93 23 85 bd 81 a5 d5 3d 7f 0f 88 be df 64 ba bd
       -0.06500926 0.10431958 -0.26574323 -0.09101271
000240 48 14 fe 3e 8c f5 b0 3d 49 4c 18 3e 08 ab 60 be
       0.49624848 0.08640584 0.1487285 -0.21940243
000250 21 84 e6 be 17 55 1c 3f 8c 24 80 be df f5 29 be
       -0.4502268 0.61067337 -0.25027883 -0.16597699
000260 f0 c4 28 be 91 eb 9c bd 73 f2 6e be f7 c7 0f be
       -0.16481376 -0.07662118 -0.23334675 -0.14041124
000270 5b e0 84 be fa 90 7f 3e 77 d0 66 3e b1 a7 9e 3e
       -0.2595242 0.24957648 0.2254046 0.30987313
000280 59 8d f7 bd af 4c a8 be 13 4c d5 bd db 1e d8 3e
       -0.12087507 -0.32871005 -0.10414901 0.4221104
000290 71 24 8a bd d1 a8 06 be 1d ea 1b 3f 22 83 6b 3e
       -0.06745232 -0.13150336 0.60904104 0.22999242
0002a0 92 51 00 3f c5 f5 12 3e df a4 f4 3d 71 b5 db be
       0.50124466 0.14351566 0.11945509 -0.42911866
0002b0 e3 ec ab bd b6 71 83 bd 79 df 97 3e 40 9e 1b bf
       -0.08394792 -0.06418173 0.29662684 -0.60788345
0002c0 1a 58 a9 3e b1 a9 46 bd 4e 04 f9 be 71 01 21 be
       0.3307503 -0.048501674 -0.48636097 -0.15723206
0002d0 24 00 e0 3d 9d 58 07 bd 3f a8 3b bd 74 42 8d be
       0.10937527 -0.033043493 -0.04581475 -0.27589762
0002e0 cb 1f 35 3e 85 2c 7d 3e ff 23 65 bc 15 11 16 3e
       0.1768791 0.24724014 -0.013985633 0.14654954
0002f0 e8 45 3c 3d 95 7a 28 3e 1d 60 18 3c 42 af 86 3e
       0.045965105 0.16453011 0.009300259 0.26305586
000300 36 eb bb 3d bc 0d 2a bc 49 c0 a2 bc 97 28 af 3b
       0.09175722 -0.010379251 -0.01986708 0.005345415
000310 0b 00 9a bd 0e 65 0a be ef 2e 1e 3e 78 c3 9b bd
       -0.075195394 -0.13515112 0.15447591 -0.07605642
000320 ca af 0c 3d 4a f0 bd bd 30 5f 82 bc 7b cc 36 3d
       0.034347333 -0.09274347 -0.01591453 0.0446286
000330 7f 21 e7 bc 7b ab f3 3d fe 75 ad bc 37 85 de bd
       -0.028214214 0.11897942 -0.021174427 -0.108652525
000340 d2 db 9e 3e dc 11 e7 3d 32 b3 06 bd 16 cd 68 be
       0.31027085 0.11282703 -0.032885738 -0.22734484
000350 f0 ef 90 be d1 9f dc 3e 6d dd 2a be 4c 8b 1f 3d
       -0.28308058 0.4309068 -0.1668603 0.038951203
000360 f0 95 8e bd f3 62 14 3d 47 f2 ad bd 3a 3a bf 3d
       -0.06962192 0.036227178 -0.08493476 0.09337278
000370 50 1a ba bd 15 61 00 bd e5 bb 0f 3e 01 c6 06 3e
       -0.0908705 -0.031342585 0.1403652 0.1316147
000380 e3 79 a8 bd f7 3a 96 be bf 42 ce 3d 12 a8 d6 3d
       -0.08226373 -0.29341862 0.100713246 0.104812756
000390 07 d3 57 3d ee 6c 93 3d 6d 67 6e 3e a4 59 42 3d
       0.052691486 0.07198511 0.23281641 0.04744877
0003a0 96 bd 8a 3e 1f 87 3d 3c 08 03 28 3e 59 aa 2b be
       0.27097768 0.01156786 0.16407406 -0.16764201
0003b0 e1 24 81 bd 70 16 f4 bc 9e af 27 3e 15 cf f9 be
       -0.06305862 -0.029795855 0.16375586 -0.48790804
0003c0 b0 35 c8 3d 27 0c 9b bd f5 2c 50 be 9c bf 19 3d
       0.09775865 -0.07570677 -0.2032965 0.03753625
0003d0 01 ce 2e 3e de 56 9e 3d d7 d1 c2 bd b6 16 53 be
       0.17070772 0.07731412 -0.0951268 -0.20614132
0003e0 59 da 92 3d 97 ab 20 bd b5 06 50 3d 86 5b 02 3e
       0.07170553 -0.03922614 0.050787646 0.12730226
0003f0 20 ab 3e 3d ab be 15 3d b5 33 5c 3d 3f 10 6f 3e
       0.046549916 0.03655879 0.05376025 0.23346041

lstm.bias_ih_l1 f4 [256]
000000 ef 6b 28 bf 6b d8 1a bf f3 2c 22 bf d1 99 22 bf
       -0.65789694 -0.6048648 -0.6334984 -0.63515955
000010 80 e7 df be 23 5e 9f be ab 0b 03 bf 84 c3 9e be
       -0.43731308 -0.31126508 -0.5118968 -0.31008542
000020 b2 b0 c7 be d0 98 0a bf e6 c2 08 bf 6e 66 20 bf
       -0.39001995 -0.54139423 -0.5342239 -0.62656295
000030 87 33 00 bf 61 2a de be aa cb 21 bf d6 57 fa be
       -0.50078624 -0.43391708 -0.6320139 -0.48895139
000040 60 6e ab be a7 13 cc be 23 6e 20 bf 81 cd ae be
       -0.33482647 -0.39858744 -0.62668055 -0.34141162
000050 b0 7d d8 be b3 7f 78 be 1c 04 e6 be d4 c3 19 bf
       -0.42283392 -0.24267463 -0.4492501 -0.60064435
000060 57 44 16 bf 94 50 19 bf 70 7f b6 be 78 85 d0 be
       -0.5869803 -0.5988858 -0.35644102 -0.4072683
000070 54 71 e0 be d0 4c 2b bf 82 85 28 bf 25 f2 d5 be
       -0.43836462 -0.6691408 -0.65828717 -0.41786304
000080 06 a7 24 bf 23 10 ae be 6b 0a ea be 27 99 b8 bd
       -0.6431736 -0.33996686 -0.45711073 -0.090135865
000090 8e ad 09 bf 72 dd de be b1 2f a7 be 8b 95 f9 be
       -0.5378045 -0.43528324 -0.32653573 -0.48746905
0000a0 3c bc 8c be 53 6f 17 bf a0 0f c1 be 6e 84 09 bf
       -0.2748736 -0.5915424 -0.37707233 -0.53717697
0000b0 1e 0b 18 bf d1 f1 f3 be b2 7c a0 be ff c0 d2 be
       -0.59391963 -0.4764543 -0.31345135 -0.4116287
0000c0 11 7c a1 be 46 e6 2e bf 4a 18 d9 be 50 84 11 bf
       -0.31539968 -0.6832012 -0.42401344 -0.5684252
0000d0 9c 54 1b bf 99 d5 33 bf 9e 2f 09 bf 8a ee c4 be
       -0.6067598 -0.702478 -0.53588283 -0.3846324
0000e0 3a 78 f7 be 95 4c 15 bf 93 79 e5 be 73 89 0a bf
       -0.48333913 -0.5831998 -0.44819316 -0.5411598
0000f0 bb a7 25 bf a6 e9 e9 be 45 49 24 bf 33 d1 27 bf
       -0.6470906 -0.45686072 -0.641743 -0.6555359
000100 0b 94 0a be 9b 28 c0 be e9 ba 49 3d f1 51 24 be
       -0.13533036 -0.3753098 0.049250517 -0.16046883
000110 97 cd 11 3e ce 48 1b 3e 6d 61 9a 3d d1 13 0c 3d
       0.14238583 0.15164492 0.07538114 0.034198586
000120 bf 50 15 be 5a e5 23 be c4 7b f7 3c 5e 4f 09 bd
       -0.14581583 -0.1600546 0.030210383 -0.033522956
000130 15 24 4e be 02 e3 bf ba 98 9b a7 be 52 00 9e bb
       -0.20130952 -0.0014639797 -0.32735896 -0.0048218155
000140 0a 97 44 bd 6f 76 83 bc 56 3f 2e 3c b3 aa 85 bc
       -0.047995605 -0.016047684 0.010635218 -0.016316747
000150 b4 b5 1b bd ff 18 be bd ba 26 65 3d 52 85 a1 bd
       -0.038015082 -0.092821114 0.055945136 -0.07886757
000160 45 84 02 be 7f e7 fe bd 7e ed 38 be d0 0b 6e 3c
       -0.1274577 -0.12446498 -0.18059346 0.0145291835
000170 dd d0 1b be 53 e9 a4 be a8 a6 e8 bc 38 ba 0d bd
       -0.15216394 -0.32209262 -0.02839978 -0.03460142
000180 e9 f6 a7 3d 4e 15 99 bd ef 33 f9 bd a6 21 88 3e
       0.08201391 -0.07474767 -0.12168109 0.26588172
000190 3e ce 5d be 79 bf 58 be 3f 13 47 be 18 ba a4 3a
       -0.21660706 -0.21166791 -0.19440936 0.0012567667
0001a0 3e a3 0c 3d 39 90 ca bd db ce c8 bb b3 64 cd bc
       0.034335367 -0.098907895 -0.0061281747 -0.025072431
0001b0 8a f4 e5 bd 85 35 ae bd 9b 07 1c be 71 dd 38 bd
       -0.11228283 -0.08506302 -0.15237276 -0.045133058
0001c0 6d b3 92 3e e5 41 3b be a6 7d f7 bd 41 39 36 3d
       0.28652516 -0.18286856 -0.120845124 0.044488195
0001d0 6f f1 86 be 67 c7 01 be 3e 11 19 bd 93 0f 3a be
       -0.26356074 -0.12673722 -0.03736996 -0.18170004
0001e0 ee 0f cd bd 35 c9 22 be b9 f9 4d 3d 82 da 93 bc
       -0.10012804 -0.15897067 0.050286982 -0.018048529
0001f0 26 0b 92 3d 2a 93 5d 3b aa 2e 05 be e3 3d c9 3c
       0.07131033 0.003380964 -0.13006082 0.024565643
000200 f2 71 ae bc 0b b3 66 3b 2c cc 09 be f7 f9 8c 3d
       -0.021294568 0.0035201933 -0.13456792 0.068836145
000210 6f f7 db bd 16 ec 28 bd ed 3a 16 3e 08 b8 8d 3d
       -0.107405536 -0.041240774 0.14670916 0.06919867
000220 72 42 de 3c ef b2 30 3d f8 24 20 3e ca f1 a7 3d
       0.027131293 0.043139394 0.15639102 0.082004145
000230 c4 e2 bb bd d2 a2 54 3d 59 fa ff bc c6 26 a0 3d
       -0.091741115 0.05191309 -0.031247305 0.078198954
000240 d1 03 56 bd 5d 55 5d 3d 22 a4 a4 3d 4a 4d 05 be
       -0.052249733 0.054036487 0.08039118 -0.13017765
000250 67 10 e4 3c 12 86 8d bc bb a5 b2 bd f7 f6 0b be
       0.027839852 -0.017275844 -0.08723017 -0.13668428
000260 a3 32 13 bb f6 46 8a 3d 32 2d 8e bd 21 d1 6e bb
       -0.0022460602 0.06751816 -0.06942214 -0.0036440569
000270 30 6b bb bb 8f 53 b9 3c 68 b8 95 3c aa 60 13 3d
       -0.005719565 0.022622852 0.018276408 0.035980858
000280 54 d3 58 bd 0b b5 de 3c b7 2c 8a 3d 24 a3 04 3e
       -0.052935913 0.027185937 0.0674681 0.12952858
000290 3e 2d a7 bc ba 5b 0e bd 4b d4 72 bd 84 f1 f8 3c
       -0.020407315 -0.034755446 -0.05928449 0.030388601
0002a0 c3 10 98 bc d9 77 8a 3d 68 e1 05 3e 15 5a 90 bc
       -0.01856268 0.067611404 0.13074267 -0.01762108
0002b0 9b 35 af 3d 03 06 5a bd f5 a9 c6 bc 43 94 32 3d
       0.08555146 -0.05322839 -0.024250964 0.043598425
0002c0 a3 68 99 3d cc 4b 01 bc 4b 53 05 bc d1 e2 06 3c
       0.07490661 -0.007891607 -0.008137534 0.008232788
0002d0 36 ae 07 3e 71 20 13 be 43 26 d5 3c 32 8f f2 bc
       0.1325005 -0.14367844 0.026019221 -0.029609296
0002e0 3d 61 86 3d d4 19 3d 3d 63 62 bc 3d be 11 99 bd
       0.065615155 0.04616721 0.09198453 -0.07474087
0002f0 d6 c9 b7 bd 55 43 10 3d c8 8e 84 bd 14 39 44 3d
       -0.08974044 0.035220463 -0.06472546 0.047905996
000300 d0 2b 0b bf 28 91 22 bf 89 6f c7 be 59 d6 1e bf
       -0.5436373 -0.6350274 -0.38952282 -0.6204582
000310 c2 e2 d2 be 8f 30 b7 be 67 20 80 be b7 52 d2 be
       -0.41188627 -0.35779235 -0.2502472 -0.4107873
000320 81 9f cd be 2d 4c 1c bf 16 eb 05 bf 30 57 24 bf
       -0.40160754 -0.61053735 -0.5231184 -0.6419554
000330 49 90 f2 be dc f1 a5 be 8b 9a 1d bf 72 e5 00 bf
       -0.47375706 -0.32411087 -0.6156394 -0.50350106
000340 28 d1 d7 be 19 ff db be e3 cd 1f bf a4 75 de be
       -0.4215176 -0.42968062 -0.62423533 -0.43449128
000350 b6 da d3 be 12 ba a0 be 77 d1 d9 be 1b 43 e7 be
       -0.413778 -0.3139196 -0.42542621 -0.45168385
000360 9d 7c d6 be a1 49 12 bf 0c ad ff be a5 e8 87 be
       -0.41891947 -0.571436 -0.49936712 -0.2654468
000370 24 cb b2 be f9 70 09 bf 1b 3e 0e bf 8c af c0 be
       -0.3492061 -0.5368801 -0.55563515 -0.37633932
000380 f2 e9 dd be dd 26 c1 be 3f 4f ff be 9f ca 2c be
       -0.4334255 -0.37724963 -0.49865147 -0.16874169
000390 ff 1a ca be 38 e8 cb be 1f 1a a1 be 5a 92 02 bf
       -0.3947372 -0.39825606 -0.3146524 -0.51004565
0003a0 44 13 65 be 69 79 20 bf 96 ab e4 be ff 6c 0b bf
       -0.2237063 -0.6268526 -0.4466216 -0.5446319
0003b0 96 40 e3 be a9 5b f3 be 94 78 bb be 42 2e c2 be
       -0.44385213 -0.4753087 -0.3661543 -0.37925917
0003c0 00 0e bf be 9e 98 0b bf 28 ba d3 be 8b cf f2 be
       -0.3731537 -0.5452975 -0.41352963 -0.47423968
0003d0 17 1c 02 bf 4c 52 e4 be 50 24 2e bf 59 a8 95 be
       -0.5082411 -0.44594038 -0.6802416 -0.29230002
0003e0 95 d7 d3 be 2c 88 ee be 5b b7 f6 be 18 98 0f bf
       -0.41375414 -0.46588266 -0.48186764 -0.5609145
0003f0 a5 b8 25 bf 81 5f af be 31 e6 18 bf c9 02 be be
       -0.6473487 -0.3425255 -0.59726244 -0.371115
